…
    Namespace(arch='custom', batch_size=128, data='/home/dataset/ILSVRC/Data/CLS-LOC', dist_backend='nccl', dist_url='tcp://224.66.41.62:23456', epochs=15, evaluate=False, gpu=None, img=256, jitter_train=[], jitter_val=[], keep_logs=True, lr=0.001, momentum=0.9, multiprocessing_distributed=False, normalize=True, pretrained=False, print_freq=1000, rank=-1, resume='', seed=None, start_epoch=0, weight_decay=0.0001, workers=4, world_size=-1)
    
2021-04-28 01:41:25 INFO     => using custom model
2021-04-28 01:41:26 INFO     Model Config: *** KERNEL SIZE OF 5 ***
    VGG(
  (features): Sequential(
    (0): Conv2d(3, 64, kernel_size=(5, 5), stride=(1, 1), padding=(1, 1))
    (1): ReLU(inplace=True)
    (2): MaxPool2d(kernel_size=2, stride=2, padding=0, dilation=1, ceil_mode=False)
    (3): Conv2d(64, 128, kernel_size=(5, 5), stride=(1, 1), padding=(1, 1))
    (4): ReLU(inplace=True)
    (5): MaxPool2d(kernel_size=2, stride=2, padding=0, dilation=1, ceil_mode=False)
    (6): Conv2d(128, 256, kernel_size=(5, 5), stride=(1, 1), padding=(1, 1))
    (7): ReLU(inplace=True)
    (8): Conv2d(256, 256, kernel_size=(5, 5), stride=(1, 1), padding=(1, 1))
    (9): ReLU(inplace=True)
    (10): MaxPool2d(kernel_size=2, stride=2, padding=0, dilation=1, ceil_mode=False)
    (11): Conv2d(256, 512, kernel_size=(5, 5), stride=(1, 1), padding=(1, 1))
    (12): ReLU(inplace=True)
    (13): Conv2d(512, 512, kernel_size=(5, 5), stride=(1, 1), padding=(1, 1))
    (14): ReLU(inplace=True)
    (15): MaxPool2d(kernel_size=2, stride=2, padding=0, dilation=1, ceil_mode=False)
    (16): Conv2d(512, 512, kernel_size=(5, 5), stride=(1, 1), padding=(1, 1))
    (17): ReLU(inplace=True)
    (18): Conv2d(512, 512, kernel_size=(5, 5), stride=(1, 1), padding=(1, 1))
    (19): ReLU(inplace=True)
    (20): MaxPool2d(kernel_size=2, stride=2, padding=0, dilation=1, ceil_mode=False)
  )
  (avgpool): AdaptiveAvgPool2d(output_size=(7, 7))
  (classifier): Sequential(
    (0): Linear(in_features=25088, out_features=4096, bias=True)
    (1): ReLU(inplace=True)
    (2): Dropout(p=0.5, inplace=False)
    (3): Linear(in_features=4096, out_features=4096, bias=True)
    (4): ReLU(inplace=True)
    (5): Dropout(p=0.5, inplace=False)
    (6): Linear(in_features=4096, out_features=1000, bias=True)
  )
)
    
2021-04-28 01:41:47 INFO     Epoch: [0][    0/10010]	Time 13.451 (13.451)	Data  1.966 ( 1.966)	Loss 6.9082e+00 (6.9082e+00)	Acc@1   0.00 (  0.00)	Acc@5   0.00 (  0.00)
2021-04-28 01:53:54 INFO     Epoch: [0][ 1000/10010]	Time  0.726 ( 0.739)	Data  0.000 ( 0.010)	Loss 6.9073e+00 (6.9078e+00)	Acc@1   0.00 (  0.11)	Acc@5   0.78 (  0.56)
2021-04-28 02:05:59 INFO     Epoch: [0][ 2000/10010]	Time  0.724 ( 0.732)	Data  0.000 ( 0.005)	Loss 6.9077e+00 (6.9078e+00)	Acc@1   0.00 (  0.10)	Acc@5   0.00 (  0.55)
…
